research/style_classifier_model.pth (torch, 417736 bytes, 4 tensors)

transform.0.weight f4 [128, 768]
0	0x3cb8051b	0.022463372
1	0xbac2a162	-0.0014849121
2	0xbd214eff	-0.039381977
3	0xbb48408d	-0.0030556053
4	0x3c8662f0	0.016404599
5	0x3cd9184f	0.026500849
6	0x3ce1b773	0.027553296
7	0xbb198aeb	-0.0023428749
8	0xbce701e9	-0.028199153
9	0x3ce8a02c	0.028396688
10	0x3c10fddf	0.00884959
11	0xbd08f2d5	-0.033434708
12	0x3cc0309a	0.023460675
13	0xbc866296	-0.016404431
14	0x3ccb03d4	0.024782099
15	0xb9dfed28	-0.0004271057
16	0xbd0853a8	-0.033282906
17	0xb98bfdac	-0.00026701146
18	0xbcfd2ade	-0.03090423
19	0xba7b6024	-0.0009589216
20	0xbd038458	-0.032108635
21	0x3cebc673	0.028781151
22	0xbc2057ad	-0.009786529
23	0x3c94f754	0.018184341
24	0x3c5e8685	0.013581877
25	0xbb89c107	-0.004203919
26	0xbb8cc912	-0.0042964304
27	0x3cf1aead	0.029502237
28	0xbcab1814	-0.020885505
29	0x3cd2ba14	0.025723495
30	0xbc9833a0	-0.018579304
31	0xbcfe074e	-0.031009343
32	0x3c56ada8	0.013102926
33	0xbc8f66e0	-0.01750511
34	0xbc1f95c5	-0.009740298
35	0x3d0ef6b7	0.034903254
36	0x3884be6a	6.329718e-05
37	0xbcbe4451	-0.023225935
38	0xbd0e17a1	-0.034690503
39	0xbccdf8f1	-0.025143119
40	0xbc3455e7	-0.011006809
41	0xbd34b212	-0.044115134
42	0x3c6101fd	0.013733384
43	0x3d13e6a6	0.036108635
44	0xbc9f6cd5	-0.019461075
45	0xbcecdb03	-0.028913027
46	0x3cc63e9b	0.024199774
47	0xbca2d8ab	-0.019878706
48	0xbcd308c9	-0.025761025
49	0xbc7d7094	-0.015468735
50	0x3c66d399	0.014088535
51	0xbcfc2026	-0.030777048
52	0x3b10d0ae	0.002209704
53	0xbc8f2670	-0.017474383
54	0x3c067a4e	0.008207871
55	0xbcb8d18f	-0.022560863
56	0xbd1247d3	-0.03571303
57	0xbcff3ce7	-0.03115697
58	0x3c0e36fb	0.008680101
59	0x3cfcaeb7	0.03084503
60	0x3caf30e9	0.021385627
61	0xbcab3091	-0.020897182
62	0x3c569ac2	0.013098421
63	0xbc786980	-0.015161872
64	0xbcc5614a	-0.024094243
65	0x3c5fcd2c	0.013659757
66	0xbc624e8a	-0.0138126705
67	0x3c8f0196	0.01745681
68	0xbd245bc1	-0.040126566
69	0xbcfa0454	-0.030519642
70	0x3c23334e	0.009960962
71	0x3c3b9618	0.011449359
72	0xbc4126e2	-0.011789056
73	0xbd084078	-0.033264607
74	0x3cdade3c	0.026717298
75	0x3d11c6e6	0.035590075
76	0xbcddcce5	-0.02707524
77	0xbd14b264	-0.03630294
78	0x3c4ec044	0.012619082
79	0x3ced1944	0.028942712
80	0x3c955fa8	0.018234089
81	0xbc909636	-0.017649751
82	0xbcc3db5a	-0.023908306
83	0xbc939563	-0.01801557
84	0xbc245b95	-0.0100316005
85	0xbc57e3d8	-0.013176881
86	0x3b4761f6	0.003042338
87	0xbccb6366	-0.02482767
88	0xbc9ac3e9	-0.018892245
89	0xbd10fd04	-0.035397545
90	0x3d0c1fba	0.034209944
91	0xbcfc78c8	-0.030819312
92	0x3d1b3df8	0.037900895
93	0xbcf23fed	-0.029571498
94	0xbce78dd9	-0.02826588
95	0xbce84a12	-0.028355632
96	0xbceafd06	-0.028685104
97	0x3b0be5ac	0.0021346612
98	0xbcec83dd	-0.028871471
99	0x384a36f0	4.8211718e-05
100	0xbcfa0f87	-0.030524982
101	0x3c54c568	0.012986518
102	0x3c8f6857	0.017505808
103	0x3bda852f	0.0066687088
104	0x3c34150f	0.010991349
105	0xbb22d4d0	-0.0024846084
106	0xbc6d217b	-0.014473314
107	0x3d11617e	0.035493366
108	0x3c2c727c	0.010525342
109	0xbc47f41a	-0.012204194
110	0xbc832357	-0.016008062
111	0x3ccad941	0.024761798
112	0xbb67a991	-0.0035348872
113	0xbc616517	-0.013757012
114	0x3c1b54c9	0.009480664
115	0xb98767fe	-0.00025826687
116	0xbc8733c5	-0.016504178
117	0xbca61b8a	-0.020276804
118	0x3d22a482	0.039707668
119	0xbc6f9b84	-0.01462448
120	0xbc5db21f	-0.013531237
121	0xbc7cbadb	-0.015425409
122	0xbc08b009	-0.008342751
123	0x3d0f5bf0	0.034999788
124	0xbcfe0e2c	-0.031012617
125	0x3d044d71	0.032300416
126	0x3c9d4d6a	0.019201953
127	0x3c9a5f5b	0.018844297
128	0xbcc3b09b	-0.023887923
129	0xbb6ebb31	-0.0036427493
130	0x3c402d62	0.01172957
131	0xbc946c89	-0.01811816
132	0xbcdad59e	-0.026713189
133	0x3d2c3efe	0.04205226
134	0x3cafb803	0.021450048
135	0x3bfca1e2	0.0077097276
136	0xbc012ac7	-0.007883734
137	0x3c36163e	0.011113701
138	0xbced071a	-0.02893405
139	0xbbcd2f3b	-0.006261734
140	0x3cf7fc5f	0.030271707
141	0x3cb4858c	0.022036336
142	0x3c8c2418	0.017107055
143	0x3ca359f9	0.019940363
144	0xb9d95085	-0.00041449457
145	0x3d06b601	0.032888416
146	0x3ceb2967	0.028706266
147	0xbd0ad622	-0.03389562
148	0xbcc5afa9	-0.024131613
149	0x3c7977d9	0.015226328
150	0x3cce7dad	0.025206411
151	0xbd0a0872	-0.03369946
152	0xbc76d730	-0.015065953
153	0x3c397125	0.01131848
154	0x3d25a227	0.040437844
155	0x3c8f87b1	0.017520757
156	0xbd13e6b3	-0.036108684
157	0xbbff616c	-0.007793596
158	0x3b9c69a3	0.004773335
159	0xb951e879	-0.00020018396
160	0xbbb8173c	-0.005618004
161	0xbd11d5ab	-0.03560416
162	0xbd0d0ef2	-0.03443808
163	0xbc82536f	-0.015908925
164	0xbbd0f54a	-0.006376897
165	0x3c86a32e	0.016435232
166	0x3c13e1ba	0.009025985
167	0xbc25ba4f	-0.01011522
168	0xbcbba94a	-0.022907872
169	0x3cd7c2b0	0.026337951
170	0xbcb6fccf	-0.022337345
171	0xbcca288d	-0.02467754
172	0x3bfcc484	0.007713856
173	0x3c2522a3	0.010079059
174	0x3c484975	0.012224545
175	0xbce6a4a1	-0.028154673
176	0xbd2b4a44	-0.041818872
177	0x3a083766	0.00051962433
178	0x3ce040df	0.027374683
179	0x3c55ae01	0.013041974
180	0x3c83d3d2	0.016092215
181	0xbb890c54	-0.004182378
182	0x3caa3f70	0.020782202
183	0x3902d649	0.00012477594
184	0xbc3c0a0b	-0.011477004
185	0xbcd48013	-0.025939977
186	0xbc4f7f04	-0.01266456
187	0x3d1673e7	0.036731627
188	0xbcdfd1ff	-0.027321814
189	0xbcbb8110	-0.02288869
190	0x3c815c7d	0.015791172
191	0xbbc8f188	-0.0061323084
192	0x3c938a1f	0.018010197
193	0xb906b598	-0.00012846885
194	0xbcaccf6f	-0.021095006
195	0x3cd1fd80	0.025633574
196	0xbd043d0e	-0.03228479
197	0x3c67c17d	0.014145252
198	0x3a923c8f	0.0011156964
199	0x3c354a68	0.011065103
200	0xbc9222a3	-0.017838782
201	0x3cb7493b	0.022373786
202	0x3d005dff	0.03133964
203	0xbc88de68	-0.016707614
204	0xbce47dc3	-0.027892
205	0xbc588d07	-0.013217217
206	0xbb954a56	-0.0045559807
207	0x3cc18042	0.023620728
208	0xbb45758d	-0.003012988
209	0x3c789f9f	0.015174775
210	0xba9bfa2c	-0.0011900119
211	0xbc893a08	-0.016751304
212	0x3c94e6f2	0.01817653
213	0x3bc8e8ff	0.006131291
214	0x3c864390	0.016389638
215	0x3c8d7f63	0.017272657
216	0xbc843e71	-0.016143056
217	0x3c8c3f1e	0.01711994
218	0x3ce833ae	0.028344955
219	0x3b32ce48	0.0027283598
220	0xbc5e213f	-0.013557731
221	0xbc85557e	-0.016276117
222	0xbc2c2811	-0.010507599
223	0x3d0096e7	0.03139391
224	0xbccf6020	-0.02531439
225	0xbc721546	-0.01477558
226	0xbc3c2842	-0.011484208
227	0xbc3e1aa6	-0.011603033
228	0x3c8f49e4	0.017491288
229	0xbcf28747	-0.02960552
230	0xbc5b8941	-0.013399423
231	0xbd045327	-0.032305863
232	0xbcf364e9	-0.029711204
233	0x3ce9ce92	0.028540883
234	0x3c9088e4	0.0176434
235	0xbc6d9856	-0.014501652
236	0xbc8cda2d	-0.017193878
237	0xbd120aef	-0.03565496
238	0xbc825bf3	-0.015912985
239	0x3c9a5908	0.018841282
240	0xbc95ffbb	-0.018310418
241	0xb8d24208	-0.000100258796
242	0x3ce83c91	0.028349193
243	0x3c9a425f	0.018830476
244	0x3c39c77e	0.011339067
245	0x3ce970a5	0.028496096
246	0x3c5dcf5b	0.013538207
247	0x3d029157	0.031876888
248	0xbca0b81f	-0.019619046
249	0xbbe8f496	-0.007109235
250	0xbc90a730	-0.017657846
251	0x3cc5482e	0.02408227
252	0x3c30262a	0.0107512865
253	0x3b6779a3	0.0035320304
254	0xbcb07198	-0.02153854
255	0x3c3ed7bd	0.011648116

transform.0.bias f4 [128]
0	0xbbe67291	-0.0070327003
1	0xbc390546	-0.011292761
2	0x3b8b4784	0.0042504687
3	0x39ea4ae4	0.00044687756
4	0x3d4ba429	0.049717102
5	0x3c04f808	0.008115776
6	0x3cd1bf82	0.025604013
7	0x3cc09e6f	0.023513047
8	0x3c88acdd	0.01668399
9	0x3d0cbbc5	0.03435876
10	0x3ca64132	0.02029476
11	0x3bdf2418	0.0068097226
12	0x3d6e50f9	0.05818269
13	0x3d5ebb75	0.05437799
14	0x3c1b3dd3	0.009475189
15	0x3c546032	0.012962388
16	0xbc95d97c	-0.018292181
17	0x3d53a4a9	0.051670704
18	0x3c43fd2a	0.0119622145
19	0xbc54c563	-0.012986514
20	0xbce27196	-0.027642053
21	0xbd0ea11c	-0.034821615
22	0x3ccf2413	0.025285756
23	0x3c9f5ed1	0.019454392
24	0x3ad4e319	0.0016241997
25	0x3d443af6	0.047907792
26	0xbcaf1e94	-0.021376885
27	0x3a57895c	0.0008222067
28	0xbca7f6af	-0.02050337
29	0x3b562ea4	0.0032681609
30	0xbcc6dbf0	-0.024274796
31	0x3c63fd3d	0.013915357
32	0x3be80f43	0.0070818975
33	0x3c8f5a10	0.017499
34	0x3d2fefed	0.04295342
35	0x3c1c823c	0.009552535
36	0xbc23153e	-0.009953795
37	0x3bf8a1e3	0.007587658
38	0x3bfa64dd	0.0076414184
39	0x3cccbdd3	0.024992859
40	0x3cbcafd3	0.023033058
41	0xbc439aa0	-0.011938721
42	0x3c294364	0.010331009
43	0x3d41b1dd	0.047288764
44	0xb92fc930	-0.00016764249
45	0x3d43df08	0.04782012
46	0x3cfc2799	0.0307806
47	0x3d2f5dea	0.042814173
48	0x3ceefa89	0.029172199
49	0x3d16f038	0.036850184
50	0xbbc74837	-0.0060816067
51	0x3d2387fd	0.03992461
52	0xbd1947c1	-0.037421945
53	0xbc87b9c5	-0.016568074
54	0xbc855747	-0.016276969
55	0x3d144fb2	0.036208816
56	0x3ceb9d97	0.028761668
57	0x3c39f587	0.011350042
58	0xbc472879	-0.0121556455
59	0x3c990a94	0.018681802
60	0x3b8d9d35	0.004321719
61	0x3ca61115	0.020271817
62	0x3d038ad7	0.03211483
63	0x3ba50408	0.005035881
64	0xbb597598	-0.0033181664
65	0x3d029bc7	0.031886842
66	0x3cca13a5	0.02466757
67	0x3cb85c92	0.022505078
68	0x3b11cf68	0.0022248868
69	0xbaf12223	-0.0018397014
70	0x3d276aaa	0.040873207
71	0x3b14b49c	0.002269066
72	0x3c7c5ef8	0.015403502
73	0xbb4b0df5	-0.003098366
74	0x3d218dd7	0.03944191
75	0x3c52ace3	0.012858602
76	0x3cc3ae9b	0.02388697
77	0x3bd64c59	0.006539863
78	0x3d66520f	0.0562306
79	0x3ca79dd1	0.020460995
80	0x3cb29ea1	0.021804156
81	0xbbdd6ba2	-0.0067572156
82	0xbd44080f	-0.047859248
83	0x3d150024	0.036377087
84	0x3af4c452	0.0018674231
85	0x3d5b6479	0.053562615
86	0xbcb3ed0d	-0.02196362
87	0xbc831104	-0.015999325
88	0x3c0411ea	0.008060912
89	0x3b902630	0.0043990836
90	0x3c07c5d4	0.008286912
91	0x3ca78817	0.020450635
92	0x3cafe9ce	0.021473791
93	0x3d16d65e	0.03682553
94	0x3ba5e816	0.005063067
95	0x3b496497	0.0030730122
96	0xbcb5217e	-0.022110697
97	0x3d39b623	0.045339715
98	0xbc77f1db	-0.015133346
99	0xbb94defa	-0.0045431824
100	0x3cdd10d7	0.026985569
101	0xbba911ef	-0.0051596086
102	0x3b527f7a	0.003211944
103	0x3cb08b16	0.021550696
104	0x3c2397c1	0.009984911
105	0x3d263a0c	0.0405827
106	0x3ca6311a	0.020287085
107	0xbd03fcfb	-0.032223683
108	0xbc20259f	-0.009774595
109	0x3b8ad8d6	0.0042372746
110	0x3ce1602d	0.02751168
111	0x3cd30b5f	0.025762258
112	0x3d23b4e8	0.039967448
113	0xbcba115a	-0.022713352
114	0x3ca702b3	0.02038703
115	0x3cbc4dce	0.022986319
116	0x3c9a7880	0.018856287
117	0xbc733984	-0.014845256
118	0x3adaaadd	0.0016683001
119	0xbc36c59f	-0.011155515
120	0x3b55ff2e	0.003265332
121	0x3ce2010a	0.027588386
122	0xbccd4899	-0.025059031
123	0x3cfba31f	0.03071743
124	0x3c8c1c16	0.017103236
125	0x3c9a75cb	0.018854996
126	0x3d360d57	0.044446316
127	0xbca814a3	-0.020517653

transform.3.weight f4 [32, 128]
0	0xbca6f869	-0.020382123
1	0x3d20bce8	0.039242655
2	0xbd5a08e5	-0.05323114
3	0x3d02a972	0.031899877
4	0x3d392328	0.045199543
5	0xbdd38135	-0.10327379
6	0xbca4929a	-0.020089436
7	0x3d8d9e3e	0.06914948
8	0xbc2450ac	-0.010028999
9	0x3d496260	0.049166083
10	0x3d0f919f	0.035050984
11	0xbd753239	-0.05986235
12	0x3d18dfcd	0.037322808
13	0xbd99ca34	-0.0750927
14	0x3cfd8d4d	0.030951167
15	0x3ce1e06c	0.027572833
16	0xbd575c09	-0.052578006
17	0x3ccd0376	0.025026064
18	0xbcc0fe56	-0.023558777
19	0xbd579168	-0.052628905
20	0xbd971ec0	-0.07378912
21	0xbce78825	-0.028263161
22	0x3cc09b5d	0.023511583
23	0xbdcfa353	-0.101385735
24	0x3ceae883	0.028675323
25	0xbdb05d04	-0.08611491
26	0x3d91e64a	0.07124002
27	0xbd76ceae	-0.0602557
28	0x3d0b9b6c	0.03408377
29	0x3d72c765	0.05927219
30	0x3d17b3d5	0.037036736
31	0x3da8ea65	0.08247832
32	0xbd8d5688	-0.0690127
33	0xbd3e3fb8	-0.046447486
34	0xbd61fc66	-0.055172347
35	0x3d8c78f6	0.06859009
36	0xbd8d08e4	-0.068864614
37	0xbd990b57	-0.07472866
38	0xbdbe4198	-0.09289855
39	0x3cdbe1b0	0.026841015
40	0x3d0a94bb	0.033833247
41	0xbdcf266f	-0.101147525
42	0xbcd3ffba	-0.025878776
43	0xbce3dae7	-0.027814342
44	0xbddb8bad	-0.107200004
45	0x3da26d35	0.07930986
46	0x3d3a2042	0.04544092
47	0x3af19efc	0.0018434222
48	0x3c3666f4	0.011132944
49	0xbda61b1d	-0.0811064
50	0xbd4e485e	-0.050361983
51	0xbd024f27	-0.031813767
52	0xbdb26204	-0.08710101
53	0xb9f6f236	-0.00047101238
54	0x3d09ef2a	0.03367535
55	0x3d4cfae1	0.050043944
56	0x3c5fcdd3	0.013659912
57	0xbbf04293	-0.007332155
58	0x3d49daf9	0.049281094
59	0x3d75451b	0.059880357
60	0xbd8c4785	-0.06849579
61	0xbd0c9077	-0.03431746
62	0xbdb432af	-0.0879873
63	0xbda0c747	-0.07850509
64	0x3d669ba4	0.056300774
65	0x3c64f3db	0.013974155
66	0xbd6e22ba	-0.058138587
67	0xbd9eecae	-0.07759987
68	0x3db40753	0.087904595
69	0xbd428e53	-0.047499012
70	0xbcc94729	-0.024570065
71	0xbd4bbe86	-0.049742244
72	0xbd828374	-0.06372729
73	0xbc41a1da	-0.011818374
74	0xbdacf5ae	-0.08445297
75	0x3d7ea9e9	0.062173758
76	0x3ce4c6bd	0.027926797
77	0x3d22a72a	0.0397102
78	0x3d50b127	0.050950196
79	0xbdb46a71	-0.088093646
80	0x3c81e897	0.015857978
81	0xbd2be665	-0.04196777
82	0x3d8ef6b9	0.06980652
83	0x3ca177a0	0.019710362
84	0xbd8efbc1	-0.06981612
85	0xbce7a12d	-0.028275097
86	0xbd6a62b7	-0.057223048
87	0xbda3e1f7	-0.08002084
88	0xbd148a6c	-0.036264822
89	0xbc435169	-0.011921265
90	0xbbe67793	-0.0070332973
91	0xbd31a5a7	-0.04337087
92	0x3d218fac	0.039443657
93	0x3d94047e	0.07227419
94	0xbddbcb8a	-0.10732181
95	0xbdbc4746	-0.09193282
96	0xbd7576e6	-0.059927844
97	0x3d795c1b	0.060878854
98	0xbca92614	-0.02064804
99	0x3a5664d0	0.00081784744
100	0xbd6619d6	-0.056176983
101	0xbcfe5ac8	-0.031049147
102	0xbcdd7129	-0.027031498
103	0xbd2ff54c	-0.042958543
104	0xbd8d7dbc	-0.069087476
105	0xbd5af14f	-0.053452786
106	0xbdb16999	-0.08662719
107	0x3d3927d4	0.045204
108	0xbda5bb5e	-0.08092378
109	0xbdb153db	-0.08658572
110	0xbc86b465	-0.01644344
111	0xbced7176	-0.028984766
112	0x3c7afe62	0.015319439
113	0xbd895de0	-0.06707358
114	0xbdcb469b	-0.09925576
115	0x3c0eecf0	0.0087234825
116	0x3d855f19	0.06512279
117	0x3d960146	0.07324462
118	0x3cd444b7	0.025911672
119	0xbc8b3360	-0.016992271
120	0x3d62d9c8	0.055383474
121	0xbdac86f8	-0.08424181
122	0x3ca03d6c	0.019560538
123	0xbc84b7dc	-0.016200952
124	0xbd0b5109	-0.034012828
125	0x3dac22e7	0.084050946
126	0xbd0919c1	-0.033471826
127	0xbd2be20e	-0.04196363
128	0x3d8d5879	0.069016404
129	0xb958f452	-0.00020690382
130	0xbcb0c482	-0.021578077
131	0xbd95336e	-0.072852
132	0xbd885b12	-0.06657995
133	0xbd7da19d	-0.061921705
134	0x3cc07769	0.02349444
135	0x3c5068e7	0.012720323
136	0xbd882e42	-0.06649448
137	0xbd034bb0	-0.032054603
138	0xbda2cc2a	-0.079490975
139	0x3ca0e88f	0.019642143
140	0xbdc3b3e7	-0.09555798
141	0xbc4cabb4	-0.012492109
142	0xbcc30358	-0.023805305
143	0xbd1b3742	-0.037894495
144	0xbd44a40d	-0.048008014
145	0x3d4c8626	0.04993262
146	0xbd14e019	-0.03634653
147	0x3d8a18de	0.06743024
148	0x3d8011c7	0.06253391
149	0xbd48b465	-0.049000163
150	0xbcc0f804	-0.023555763
151	0xbc6848f9	-0.014177554
152	0xbdb2b6cd	-0.08726273
153	0xbde945ee	-0.11390291
154	0xbc31fcee	-0.010863526
155	0xbc819b66	-0.01582117
156	0x3bceaa27	0.006306905
157	0xbda1685e	-0.078812346
158	0xbc4071d8	-0.011745892
159	0xbdacf8aa	-0.084458664
160	0xbd77858a	-0.060430087
161	0xbda9656c	-0.08271298
162	0xbdd118a7	-0.1020978
163	0xbdda98a3	-0.106736444
164	0xbdc9facb	-0.09862288
165	0x3c02e64a	0.0079894755
166	0x3cdfe4b7	0.02733074
167	0x3c96fa18	0.0184298
168	0xbcfcded1	-0.030867966
169	0x3d497523	0.049183976
170	0x3d5d9929	0.054101143
171	0xbd155b9e	-0.036464326
172	0x3d0f4861	0.034981135
173	0xbda4594e	-0.08024846
174	0x3d2ed5d6	0.0426844
175	0xbd317978	-0.043328732
176	0xbde10928	-0.109880745
177	0x3c36b3ad	0.0111512365
178	0x3cb8c50d	0.022554899
179	0xbdae68bd	-0.08516071
180	0x3cebe7f2	0.028797124
181	0x3d6beaba	0.0575969
182	0xbd4ae681	-0.049536232
183	0xbdd22dc2	-0.10262634
184	0x3c82ff5d	0.015990907
185	0xbcbe0606	-0.023196232
186	0xbcb754ae	-0.022379246
187	0xbcb1510b	-0.02164509
188	0x3d928d77	0.071558885
189	0xbd98f584	-0.074687034
190	0xbd9a1081	-0.07522679
191	0xbda1dcf3	-0.07903471
192	0x3d38c3e7	0.045108702
193	0xbc8b7731	-0.017024608
194	0x3dbab352	0.09116234
195	0x3d4c05f9	0.049810383
196	0xbd9cb159	-0.07651014
197	0xbcc00e00	-0.023444176
198	0xbdc42b52	-0.09578575
199	0x3c0f1e1f	0.008735209
200	0x3d95dcb4	0.073174864
201	0xbd778623	-0.060430657
202	0xbd74a042	-0.059723146
203	0xbd40d887	-0.047081497
204	0xbd2a7a7e	-0.041620724
205	0x3c939c64	0.018018909
206	0xbd8022a3	-0.062566064
207	0xbdb9d1ff	-0.09073257
208	0x3c281923	0.010259899
209	0x3d724519	0.059147928
210	0x3d6c3493	0.057667326
211	0x3cca9fe3	0.024734443
212	0xbd3d78c1	-0.046257738
213	0xbde19ec9	-0.11016614
214	0xbccb458c	-0.024813436
215	0xbc9dd5d6	-0.019267004
216	0x3c8f107f	0.01746392
217	0x3d5bf74c	0.053702638
218	0xbdc76e8f	-0.09737884
219	0x3a28cb78	0.00064390106
220	0x3caa390f	0.02077916
221	0xbbb33538	-0.0054689907
222	0x3d3311f1	0.043718282
223	0xbdb822b6	-0.089909956
224	0x3d4561f8	0.048189133
225	0xbd73d16e	-0.0595259
226	0xbcdba157	-0.026810331
227	0xbd612329	-0.054965172
228	0x3d79d52e	0.06099432
229	0xbdab64da	-0.08368845
230	0xbdbd0f99	-0.09231491
231	0xbd7c0b12	-0.061533995
232	0x3bf23f5c	0.007392807
233	0xbcbd8261	-0.023133459
234	0x3d6a4e4d	0.05720358
235	0x3d7c6626	0.061620854
236	0x3d6dd019	0.058059786
237	0xbc8dbb51	-0.017301233
238	0x3d15659a	0.036473848
239	0x3c7e12a9	0.015507379
240	0xbd814cc4	-0.0631347
241	0x3db96848	0.09053093
242	0xbdcfcd04	-0.101465255
243	0xbc5d6bf0	-0.013514504
244	0x3cfe923d	0.031075591
245	0xbd7aaa52	-0.061197586
246	0x3cd2ca5c	0.025731258
247	0xbd2e3014	-0.04252632
248	0xbd26ee48	-0.040754586
249	0x3ab3d4fd	0.0013720092
250	0xbdd763b3	-0.10517063
251	0x3c938446	0.018007409
252	0xbca96fff	-0.020683287
253	0xbd4c5465	-0.049885172
254	0xbdf6c9d0	-0.120502114
255	0x3be33e93	0.0069349497

transform.3.bias f4 [32]
0	0x3d402aa8	0.04691568
1	0xbc11409e	-0.008865504
2	0x3da7e1d1	0.08197368
3	0xbd751e01	-0.059843067
4	0xbd4813fa	-0.048847176
5	0x3db8d4f4	0.090249926
6	0xbc18d583	-0.009328249
7	0xbda74357	-0.08167141
8	0xbd8f2768	-0.06989938
9	0xbc717a6e	-0.014738662
10	0xbd9c025e	-0.07617639
11	0x3d8bfdb9	0.06835503
12	0x3d59b496	0.053150736
13	0x3d26038b	0.040530723
14	0x3d9b1acf	0.07573473
15	0x3d4688e6	0.0484704
16	0x3d1bbf43	0.0380242
17	0x3d49fff5	0.049316365
18	0x3cd94eb9	0.026526796
19	0xbc90e87f	-0.017688988
20	0x3d9796ae	0.07401787
21	0x3b13f3cc	0.0022575734
22	0x3d393f6d	0.045226503
23	0x3da41788	0.08012301
24	0x3c0bbd6b	0.0085290475
25	0x3c8049d5	0.015660206
26	0x3d8f255d	0.06989548
27	0xbd2aab35	-0.041667182
28	0x3c98314e	0.018578198
29	0x3db58761	0.08863712
30	0x3d8a47fa	0.0675201
31	0xbda3e797	-0.08003157
